mnist_write.tflite (tflite, 116712 bytes, 6 tensors)

sequential/dense/BiasAdd/ReadVariableOp f4 [10]
000000 07 7d 1c bc 8b 24 05 3d 8b ca 6e bc 5c d1 5f bd
       -0.009551293 0.032505553 -0.014574657 -0.05464302
000010 dd 83 2c bc d1 3c b3 3c 04 6b 12 b9 54 38 a3 3c
       -0.0105294855 0.021879585 -0.00013963511 0.01992432
000020 4e e4 77 bc 24 db 50 3c
       -0.015130116 0.01274756

sequential/conv2d/BiasAdd/ReadVariableOp f4 [32]
000000 fc c0 c4 bb 80 aa 5c bb 62 6e b4 3c 3a 65 5f bb
       -0.006004451 -0.0033670962 0.02202529 -0.0034087435
000010 56 66 52 bb 51 1d cd bb 96 ba c4 bb d8 db f6 ba
       -0.0032104454 -0.0062595983 -0.006003688 -0.0018833829
000020 de be c4 bb 42 7d c2 bb 18 b2 3a 3d a3 c0 c4 bb
       -0.0060041985 -0.005935342 0.04558 -0.0060044094
000030 99 4f eb bb 59 fd bb bb 81 d6 e1 3c e8 61 09 bc
       -0.0071811196 -0.0057369885 0.027568104 -0.008385159
000040 a3 13 15 bc 9c ad b9 bb 33 13 2d bb 2c ad 89 bb
       -0.00909892 -0.005666448 -0.0026409149 -0.004201552
000050 20 b9 c4 bb 86 64 8f bb 19 85 8b bb 57 b3 41 3d
       -0.006003514 -0.004375997 -0.00425781 0.047290172
000060 3e ca 9e bb f2 1e d9 bb cd db c8 bb 11 92 96 bb
       -0.0048458865 -0.0066260034 -0.006129718 -0.004595049
000070 3a 86 ae 3c c3 bd c4 bb df b1 c4 bb 86 bb c4 bb
       0.021304239 -0.0060040667 -0.006002649 -0.0060038

sequential/conv2d_1/BiasAdd/ReadVariableOp f4 [64]
000000 c2 50 86 bc e8 a7 14 bc 37 ca 65 bb 5c 0f 82 ba
       -0.01639593 -0.009073235 -0.0035063156 -0.000992279
000010 b8 8e dc 3d cd 07 c4 bb 0c c5 c4 bb f2 e2 aa 3d
       0.10769409 -0.0059823752 -0.006004935 0.08344068
000020 56 ad 69 bb c2 10 4c bc 1e d6 3b 3d 56 b5 9f 3d
       -0.0035656295 -0.012455167 0.045858495 0.07798259
000030 f4 af 82 bb 83 e3 cd bb f6 8f ce bc 65 2a 1f 3d
       -0.0039882604 -0.006283225 -0.02521513 0.03885879
000040 ef da 32 bb a2 69 db bc 4e e9 a0 bb 27 7b c4 bb
       -0.002729114 -0.026783768 -0.0049106246 -0.005996126
000050 15 19 92 bb 04 23 2d bb 5d 6f e8 bc 29 e6 d4 bb
       -0.0044585564 -0.0026418576 -0.028373415 -0.006497164
000060 dc cc 2b bb 87 51 41 3d a3 fb f2 bb a0 b3 92 bb
       -0.0026214635 0.04719689 -0.0074152513 -0.0044769794
000070 e2 21 5c 3d 65 1b 9f bb 0d a6 c4 bb 87 b3 c4 bb
       0.05374325 -0.0048555606 -0.00600124 -0.0060028466
000080 7f ee 28 bc b0 00 41 3d 2c 8e 3a bb ac c4 8d ba
       -0.010310768 0.047119796 -0.0028466089 -0.0010816059
000090 3f ea 1b bd ec 96 91 3d 31 ea c5 bb 8f 75 0e bd
       -0.03806519 0.07108864 -0.0060398807 -0.03478008
0000a0 ef c1 31 bc ae ce 3d 3d b0 85 84 bb e4 e7 15 bd
       -0.01084946 0.046339683 -0.004044257 -0.0365981
0000b0 9a b2 ba bc 32 93 81 bb 4b 2f e4 bb 7a 5c 2d bc
       -0.022790242 -0.0039543146 -0.0069636456 -0.01058113
0000c0 e3 c4 c4 bb 20 c3 c4 bb 18 1f 38 bc a5 52 1f 3d
       -0.006004916 -0.006004706 -0.011237882 0.038897175
0000d0 13 c1 c4 bb 80 9d 78 bb 9e be ea bb 49 4c 67 39
       -0.0060044616 -0.0037935674 -0.0071638366 0.00022058295
0000e0 d2 a7 c4 bb c8 da e3 bb 20 f5 9e bb bd 78 47 ba
       -0.006001451 -0.006953571 -0.0048509985 -0.0007609239
0000f0 5f b4 ae 3d 66 d9 80 bb ac 0b 50 bb 3d 79 81 bb
       0.08530497 -0.003932166 -0.0031745238 -0.0039512203

sequential/conv2d/Conv2D f4 [32, 3, 3, 1]
000000 82 78 6a bd 77 5d 9b bb 18 fe f4 bd 4a 5c ac 3c
       -0.05724383 -0.0047413665 -0.11962527 0.0210401
000010 53 e8 7a 3d c9 ee ab 3b e8 03 a3 3d d3 55 9d bd
       0.061256718 0.0052469713 0.079597294 -0.07682385
000020 ab 57 c4 3b fe b3 ab bd 3d b1 ad 3d 09 e9 36 bc
       0.005991896 -0.0838394 0.08481071 -0.011163958
000030 95 ae fe bc 16 fa f6 bd cc ab ec bd 9a 9c 01 3e
       -0.031089107 -0.12059419 -0.11556205 0.12657395
000040 25 f8 90 ba a3 5a 12 bd 3f c3 2c 3f b6 0e 93 3f
       -0.0011060281 -0.03573097 0.6748542 1.1488864
000050 46 32 85 3f 34 b3 97 3f 76 09 c8 3f 91 4f ae 3f
       1.0405967 1.1851563 1.5627887 1.3618032
000060 c9 a5 67 3f 07 2d 85 3f a9 b4 88 3f b3 34 c9 bd
       0.90487343 1.0404366 1.0680133 -0.09824505
000070 6a b6 ad 3d bc 61 2d 3d 38 14 3b 3d a9 cb cc bd
       0.08482058 0.042329535 0.04567358 -0.099997826
000080 1d de 25 3e a3 88 5b bd f5 c5 df 3d 75 5e 33 3d
       0.1619801 -0.053597104 0.10926429 0.043791253
000090 c5 b5 0b 3a a4 1b 59 bd c3 9d c3 bd 8f 76 90 bd
       0.0005329515 -0.053004876 -0.09551575 -0.07053863
0000a0 11 d9 a2 3c 5e 4c 65 bd b7 54 a6 bd 53 9c 6f 3d
       0.019878896 -0.055981033 -0.08121627 0.05849869
0000b0 09 94 bb 3c fa 34 f4 bd 95 18 f7 3b 01 74 bd 3d
       0.022897737 -0.11924167 0.007540772 0.092506416
0000c0 d1 55 c0 3d 76 af 3c bd f9 36 93 bd 93 0f be 3d
       0.09391368 -0.04606577 -0.071882196 0.09280314
0000d0 4e fc dd 3d cb 94 f8 bc ac 35 11 3e 8c 79 0d bd
       0.10839139 -0.030344388 0.1418063 -0.034539744
0000e0 5c 57 da bb 26 f6 6f bd e4 c9 de bc f1 3b 0c be
       -0.006663246 -0.058584355 -0.027195878 -0.13694741
0000f0 90 3e 85 3c 52 ca 9d 3b 25 22 ae bd 3c 3c 00 be
       0.016265184 0.004815378 -0.08502606 -0.12522978
000100 32 5c e6 3d 6c d1 af 3a 9c fe 81 bd bf 71 cc bd
       0.112480536 0.0013413853 -0.06347391 -0.09982633
000110 9a e6 a3 3c 89 59 e2 bd 69 23 04 3e 5f 9a 58 3c
       0.02000742 -0.11052234 0.12904133 0.013220399
000120 c0 d5 06 bc be 0c 02 be a6 12 d3 bd fe 3c 12 3d
       -0.008229673 -0.12700173 -0.10306291 0.035702698
000130 8f b5 6b 3d 42 60 54 bd 11 16 d4 3d 6d d5 51 bd
       0.057546195 -0.05184961 0.10355771 -0.05122893
000140 ad 73 66 3d 9e 4a bf 3d 20 39 95 bc e0 a9 c1 bd
       0.05626266 0.09340404 -0.018215716 -0.09456229
000150 40 42 db 3d 9b 10 b9 bc 05 f2 97 bc e2 d9 80 3d
       0.107059956 -0.022590926 -0.018548021 0.06291558
000160 fa c1 6d bd ce 6d f7 3a 1a ae 45 bf c3 7e 9e bf
       -0.05804632 0.0018877329 -0.7721878 -1.2382435
000170 3d 97 8c bf 89 f4 af bf 48 58 c2 bf de 86 aa bf
       -1.0983654 -1.3746501 -1.5183191 -1.3322408
000180 75 24 97 bf f6 ac cb bf f8 20 a1 bf 44 ff ad 3d
       -1.1808001 -1.5912158 -1.2588186 0.08495954
000190 3c 36 c3 3c 48 73 f7 bd 85 44 0b bd e5 ed 90 3d
       0.023829572 -0.12082535 -0.034000892 0.07076625
0001a0 80 45 50 bd 05 28 02 3e 98 3f 04 be 83 27 01 be
       -0.05084753 0.12710579 -0.12914884 -0.12612729
0001b0 5d bb 21 3c 96 49 0b be fa f6 98 bb b3 55 01 be
       0.009871331 -0.1360229 -0.004668114 -0.12630348
0001c0 e7 cc cc 3c 30 04 a4 3d b6 1a 90 3d c5 a0 c4 bd
       0.025000049 0.08008611 0.07036345 -0.09600977
0001d0 ab c8 f8 bc 9b c8 f3 bd 81 5e 9c bd d1 1e 5d bd
       -0.030369123 -0.11903497 -0.07635213 -0.053984467
0001e0 12 28 5a bd f7 fc 88 3d 68 6a e1 3d 7e 5d b7 bb
       -0.05326087 0.06688874 0.110066235 -0.005595862
0001f0 d1 64 f8 bd a9 ba ab bc 89 19 44 bf 7d 5f b1 bf
       -0.12128604 -0.02096303 -0.76601464 -1.3857266
000200 b1 f9 a2 bf c4 9e b8 bf 94 51 da bf 87 34 a2 bf
       -1.273245 -1.4423451 -1.7056146 -1.267228
000210 1d 93 8a bf aa ae c3 bf 46 31 86 bf a2 c8 36 bd
       -1.0826145 -1.5287678 -1.0483787 -0.044624932
000220 6f 4f 55 bd 59 d2 fd 3d ea 18 b6 3d 14 65 02 bd
       -0.052077707 0.12393636 0.08891471 -0.031834677
000230 bd a3 05 3e d3 5d 0c bd 9f 16 9c 3b e6 ef 02 3e
       0.13050742 -0.034269165 0.004763439 0.12786826
000240 39 61 31 3e 9e fd bc 3d 4c 10 0f 3e b0 06 83 bd
       0.17322244 0.09228061 0.1397106 -0.0639776
000250 f4 a7 82 3d cb ed da 3d d2 1b 86 3b 39 13 9f 3c
       0.06379691 0.10689887 0.004092672 0.019418346
000260 4f 08 02 3e 5c 9b d4 3d bb 0b fd bd 5e 5a 03 be
       0.12698482 0.10381195 -0.12355753 -0.12827441
000270 e8 d0 82 3d 9d f8 f8 bd 2d 1a 3b bd 12 1f d2 bc
       0.06387502 -0.12156794 -0.04567926 -0.025649581
000280 3d 84 d5 3d cf 2e 9a 3d d3 b5 e9 bb a7 8a f3 bd
       0.10425613 0.07528459 -0.007132271 -0.1189168
000290 cc 99 e1 3c 53 95 0e 3d 74 45 06 3e 52 e4 f3 3b
       0.027539156 0.034810375 0.13112432 0.0074429894
0002a0 41 40 a7 3d 97 17 0a 3e 60 58 f7 3c 3c e0 10 3e
       0.08166552 0.13485561 0.030193508 0.14148039
0002b0 20 23 44 bd 5e a1 16 3e c9 26 02 bd c7 1a fb 3d
       -0.04788506 0.14709994 -0.03177527 0.12260967
0002c0 d0 56 92 bd 1f a5 e2 3d f5 c7 eb bd 31 e9 77 3c
       -0.071454644 0.110666506 -0.11512748 0.015131281
0002d0 80 43 e1 3c f8 b8 c5 bd 4f 51 05 3d cf b0 ad bc
       0.027498007 -0.096544206 0.032548245 -0.021202473
0002e0 64 2c ba bd 83 c4 df bd dc d5 d5 3d 6f 50 52 bc
       -0.09090498 -0.109261535 0.10441181 -0.01283656
0002f0 ae 74 e2 bd 7c ca 3a 3e 10 87 0d 3e 58 10 60 3e
       -0.11057411 0.18241304 0.13821054 0.21881235
000300 02 f8 cc 3d 46 91 87 3c e5 5e ed 3d e7 33 d1 3d
       0.10008241 0.016548764 0.11590365 0.10214978
000310 93 05 11 3e 10 cb 54 bd 65 70 f8 3d 13 b8 45 3d
       0.14162283 -0.051951468 0.121308126 0.04827125
000320 21 26 0a bd 21 a4 43 3c 14 8b da bd f4 41 00 3e
       -0.03372777 0.011940987 -0.10671058 0.12525159
000330 a9 de 84 3c 39 2d 2a bc 0b 13 d3 3d 8b e0 6f bf
       0.016219454 -0.0103867585 0.103063665 -0.93702
000340 57 5b c7 bf fd 6d aa bf 1b 3d c2 bf 2a cd cd bf
       -1.557475 -1.3314816 -1.5174898 -1.6078236
000350 ea 01 a2 bf d9 b9 a8 bf 71 88 cf bf 48 fe 82 bf
       -1.2656834 -1.3181716 -1.6213514 -1.023385
000360 8c 4f 59 bd 6f 69 fb 3d 17 b0 16 3c 51 5a 9a 3d
       -0.053054377 0.12275969 0.0091972565 0.07536758
000370 32 64 9c 3d 64 ef ac bc 38 ee fe 3d 35 6e a5 3c
       0.07636298 -0.021110244 0.1244778 0.020194152
000380 f2 26 61 bc d3 f7 8d 3d 0f 95 bd 3c 50 b2 d1 3d
       -0.013742195 0.06932034 0.023142366 0.102390885
000390 a0 0e 9d 3d 08 e1 c9 3d bc 81 42 bd a3 60 25 bd
       0.07668805 0.098573744 -0.047487006 -0.040375363
0003a0 4f 21 15 bd e2 ef 3a bc d5 44 04 3e e6 1b c1 3d
       -0.03640872 -0.011409732 0.12916882 0.09429149
0003b0 78 dc b6 bd 58 c7 15 be d0 12 d7 bc 0b 9f 2c bc
       -0.0892877 -0.14626825 -0.026254088 -0.010535966
0003c0 9f 23 3d bd f5 d3 f7 3c 82 53 c9 3d 6c cd de 3b
       -0.04617655 0.030252436 0.09830381 0.0067993905
0003d0 db a1 4e bd 67 e6 4a 3d f2 31 fc 3c 33 c4 bb 3d
       -0.050447326 0.049536135 0.030785535 0.091682814
0003e0 33 4f 37 3e 89 4f 47 bd 5f 3b 51 3e 0c f3 0d 3c
       0.17901306 -0.048659835 0.20432805 0.008663904
0003f0 83 a2 79 3f 42 d1 9c 3f ed 89 92 3f f7 b0 a2 3f
       0.975136 1.225136 1.1448342 1.2710255

sequential/conv2d_1/Conv2D i1 [64, 3, 3, 32]
000000 1a b6 b2 35 ec e6 38 e6 fc b6 cc 1c fd 43 4a 09
       26 -74 -78 53 -20 -26 56 -26 -4 -74 -52 28 -3 67 74 9
000010 f0 f0 2d 10 c0 42 dd 31 b5 35 48 26 3a 08 02 15
       -16 -16 45 16 -64 66 -35 49 -75 53 72 38 58 8 2 21
000020 f8 d2 b2 fa c6 30 cf b5 22 4b ad d0 32 c3 27 54
       -8 -46 -78 -6 -58 48 -49 -75 34 75 -83 -48 50 -61 39 84
000030 bc 27 e7 ad fc 52 da 42 1e ae 2c af 0e f3 cb f4
       -68 39 -25 -83 -4 82 -38 66 30 -82 44 -81 14 -13 -53 -12
000040 da f6 e0 c1 b6 58 11 c3 fb 48 8d 50 26 da b1 d6
       -38 -10 -32 -63 -74 88 17 -61 -5 72 -115 80 38 -38 -79 -42
000050 09 2f 46 d6 34 bf 2f fe 45 06 2c 1a 50 c4 33 ae
       9 47 70 -42 52 -65 47 -2 69 6 44 26 80 -60 51 -82
000060 57 56 dc bf 08 23 ed cb b5 1d fd 43 17 2a 04 23
       87 86 -36 -65 8 35 -19 -53 -75 29 -3 67 23 42 4 35
000070 30 15 eb aa 38 4d 47 37 01 0b d4 fc d4 ff 2f 1f
       48 21 -21 -86 56 77 71 55 1 11 -44 -4 -44 -1 47 31
000080 e5 58 30 22 a4 dd f9 05 d0 c2 94 2f c4 f6 89 37
       -27 88 48 34 -92 -35 -7 5 -48 -62 -108 47 -60 -10 -119 55
000090 33 ce c9 c0 53 0e 25 8d 5a ee 0f 2c 3b 39 ba ae
       51 -50 -55 -64 83 14 37 -115 90 -18 15 44 59 57 -70 -82
0000a0 37 fd e0 0c dd 05 06 12 39 55 ae d1 b6 ed 1a b5
       55 -3 -32 12 -35 5 6 18 57 85 -82 -47 -74 -19 26 -75
0000b0 12 4c 4f 12 e1 be c2 1f 47 0c ea a6 fb 10 1a f6
       18 76 79 18 -31 -66 -62 31 71 12 -22 -90 -5 16 26 -10
0000c0 2a 2a 08 40 36 3b 56 fd e3 18 93 2e 39 d9 db 33
       42 42 8 64 54 59 86 -3 -29 24 -109 46 57 -39 -37 51
0000d0 d6 50 eb 49 1a bf f7 21 b7 2d f2 d3 05 b0 fe bf
       -42 80 -21 73 26 -65 -9 33 -73 45 -14 -45 5 -80 -2 -65
0000e0 3c 24 f1 41 ba db 36 0c 24 3c 17 b0 01 18 81 20
       60 36 -15 65 -70 -37 54 12 36 60 23 -80 1 24 -127 32
0000f0 c3 bc 50 c1 01 1e cf 84 dd b3 35 3e 1f 15 d0 bd
       -61 -68 80 -63 1 30 -49 -124 -35 -77 53 62 31 21 -48 -67

sequential/dense/MatMul i1 [10, 9216] scale=0.0113734035 zero_point=0
000000 03 01 fe 02 00 02 fe f5 01 ff 00 f8 02 ff 00 00
       0.03412021 0.0113734035 -0.022746807 0.022746807 0.0 0.022746807 -0.022746807 -0.12510744 0.0113734035 -0.0113734035 0.0 -0.09098723 0.022746807 -0.0113734035 0.0 0.0
000010 fe 00 fe 02 00 00 02 03 01 f9 01 02 fe 01 00 01
       -0.022746807 0.0 -0.022746807 0.022746807 0.0 0.0 0.022746807 0.03412021 0.0113734035 -0.07961383 0.0113734035 0.022746807 -0.022746807 0.0113734035 0.0 0.0113734035
000020 00 06 02 fe fd 01 02 02 fd 0b 01 00 01 ff ff 00
       0.0 0.06824042 0.022746807 -0.022746807 -0.03412021 0.0113734035 0.022746807 0.022746807 -0.03412021 0.12510744 0.0113734035 0.0 0.0113734035 -0.0113734035 -0.0113734035 0.0
000030 00 ff 01 f3 ff 01 02 fe ff 00 01 fe ff ff 00 01
       0.0 -0.0113734035 0.0113734035 -0.14785424 -0.0113734035 0.0113734035 0.022746807 -0.022746807 -0.0113734035 0.0 0.0113734035 -0.022746807 -0.0113734035 -0.0113734035 0.0 0.0113734035
000040 07 01 00 ff f5 01 fe f3 01 ff ed f1 fd ff ff ec
       0.07961383 0.0113734035 0.0 -0.0113734035 -0.12510744 0.0113734035 -0.022746807 -0.14785424 0.0113734035 -0.0113734035 -0.21609467 -0.17060106 -0.03412021 -0.0113734035 -0.0113734035 -0.22746807
000050 fe ff ff 02 01 ff 00 01 01 00 ff 01 f1 03 ff 01
       -0.022746807 -0.0113734035 -0.0113734035 0.022746807 0.0113734035 -0.0113734035 0.0 0.0113734035 0.0113734035 0.0 -0.0113734035 0.0113734035 -0.17060106 0.03412021 -0.0113734035 0.0113734035
000060 02 f5 00 ff fb ef 00 fe 00 fa 03 01 00 fe 00 02
       0.022746807 -0.12510744 0.0 -0.0113734035 -0.05686702 -0.19334786 0.0 -0.022746807 0.0 -0.06824042 0.03412021 0.0113734035 0.0 -0.022746807 0.0 0.022746807
000070 fe 02 02 e8 01 00 00 e9 01 01 fc ff f5 00 07 ff
       -0.022746807 0.022746807 0.022746807 -0.27296168 0.0113734035 0.0 0.0 -0.26158828 0.0113734035 0.0113734035 -0.045493614 -0.0113734035 -0.12510744 0.0 0.07961383 -0.0113734035
000080 08 05 01 fe f5 02 00 f4 01 01 f6 f9 01 01 00 01
       0.09098723 0.05686702 0.0113734035 -0.022746807 -0.12510744 0.022746807 0.0 -0.13648084 0.0113734035 0.0113734035 -0.11373404 -0.07961383 0.0113734035 0.0113734035 0.0 0.0113734035
000090 01 01 fe 01 01 02 ff fe 00 00 ff 00 fa ff 02 00
       0.0113734035 0.0113734035 -0.022746807 0.0113734035 0.0113734035 0.022746807 -0.0113734035 -0.022746807 0.0 0.0 -0.0113734035 0.0 -0.06824042 -0.0113734035 0.022746807 0.0
0000a0 01 f7 02 fe fb fa 03 01 00 f9 02 02 00 ff ff fe
       0.0113734035 -0.10236063 0.022746807 -0.022746807 -0.05686702 -0.06824042 0.03412021 0.0113734035 0.0 -0.07961383 0.022746807 0.022746807 0.0 -0.0113734035 -0.0113734035 -0.022746807
0000b0 01 ff ff f0 02 02 02 f4 ff ff 02 ff f1 01 fa 02
       0.0113734035 -0.0113734035 -0.0113734035 -0.18197446 0.022746807 0.022746807 0.022746807 -0.13648084 -0.0113734035 -0.0113734035 0.022746807 -0.0113734035 -0.17060106 0.0113734035 -0.06824042 0.022746807
0000c0 06 fd fe 00 f1 01 00 f3 ff fe fa f6 01 02 03 01
       0.06824042 -0.03412021 -0.022746807 0.0 -0.17060106 0.0113734035 0.0 -0.14785424 -0.0113734035 -0.022746807 -0.06824042 -0.11373404 0.0113734035 0.022746807 0.03412021 0.0113734035
0000d0 00 03 01 ff 01 fe 02 00 fe fe fe ff fd 01 02 fe
       0.0 0.03412021 0.0113734035 -0.0113734035 0.0113734035 -0.022746807 0.022746807 0.0 -0.022746807 -0.022746807 -0.022746807 -0.0113734035 -0.03412021 0.0113734035 0.022746807 -0.022746807
0000e0 00 f7 01 ff fc fa 02 ff fe fa 02 02 02 ff 01 fd
       0.0 -0.10236063 0.0113734035 -0.0113734035 -0.045493614 -0.06824042 0.022746807 -0.0113734035 -0.022746807 -0.06824042 0.022746807 0.022746807 0.022746807 -0.0113734035 0.0113734035 -0.03412021
0000f0 00 ff 00 f4 02 ff 00 e8 00 02 ff 02 ee 01 fb ff
       0.0 -0.0113734035 0.0 -0.13648084 0.022746807 -0.0113734035 0.0 -0.27296168 0.0 0.022746807 -0.0113734035 0.022746807 -0.20472126 0.0113734035 -0.05686702 -0.0113734035
